rps_agent_model.pth (torch, 6232 bytes, 6 tensors)

fc1.weight f4 [32, 9]
0	0xbe01c740	-0.12673664
1	0xbe642d1b	-0.22282831
2	0xbede1441	-0.43374828
3	0x3d4a5e55	0.04940637
4	0x3c8a96e1	0.016917648
5	0x3f3e8fed	0.74438363
6	0x3e0165b4	0.12636453
7	0xbe0003b0	-0.12501407
8	0x3e48f592	0.19624928
9	0xbeee5b7c	-0.46554172
10	0x3f0f28af	0.55921453
11	0x3e7214cd	0.23640747
12	0x3bb6cd83	0.005578698
13	0x3df94e3c	0.12173125
14	0xbdc93d8a	-0.09826191
15	0xbea58444	-0.32327473
16	0xbd00cdcd	-0.031446267
17	0xbe486f6e	-0.19573757
18	0xbebf85f2	-0.3740688
19	0xbf28a517	-0.6587691
20	0x3efb255a	0.49051934
21	0x3e52ade4	0.20574147
22	0x3f042886	0.51624334
23	0xbea8860f	-0.3291478
24	0x3e65485f	0.22390889
25	0x3e62ffcd	0.22167893
26	0x3e071294	0.1319068
27	0x3e202318	0.15638387
28	0x3d18574c	0.037192628
29	0x3f1d8348	0.61528444
30	0x3e1be54c	0.15224189
31	0xbe28fe7f	-0.16503333
32	0xbe0e5bbe	-0.13902184
33	0x3e410322	0.18848851
34	0xbcda1459	-0.02662103
35	0x3e752147	0.23938476
36	0xbd52241c	-0.051303968
37	0x3e9a07b1	0.30083993
38	0x3dfa5c20	0.12224603
39	0x3e0d7057	0.13812385
40	0xbe9751c8	-0.29554582
41	0xbf73463e	-0.95029056
42	0x3e9ce334	0.30642092
43	0x3e0c4916	0.13699755
44	0xbc82d657	-0.015971346
45	0xbe62b3fa	-0.22138968
46	0xbf4296de	-0.76011455
47	0xbf2e6209	-0.6811834
48	0x3ea8e20e	0.32984966
49	0xbeb61019	-0.35559157
50	0xbe22a7b8	-0.15884292
51	0x3eb543b6	0.35403222
52	0xbe7fe1eb	-0.24988525
53	0xbe285096	-0.16436991
54	0x3e7e77a3	0.24850325
55	0x3f155cfe	0.5834502
56	0xbd113dcd	-0.03545933
57	0x3e170971	0.14749695
58	0x3ec494ce	0.3839478
59	0x3d4b18c2	0.049584158
60	0x3d2de395	0.042453367
61	0xbe1c5101	-0.15265276
62	0xbf5d99b5	-0.86562663
63	0xbf4fcdd7	-0.8117346
64	0xbe16a9c0	-0.14713192
65	0x3eea75a7	0.45792887
66	0x3f5e2d6e	0.8678807
67	0x3dfe0cc4	0.124047786
68	0xbf418bc1	-0.7560387
69	0xbdf8c779	-0.121474214
70	0xbe49f19d	-0.19721074
71	0xbe2874fc	-0.16450876
72	0x3f455033	0.770755
73	0x3f02d373	0.51103896
74	0xbf4a0605	-0.78915435
75	0x3ce4f051	0.027946623
76	0x3e856a16	0.260575
77	0x3e81edf8	0.25376868
78	0x3dd0cfa6	0.10195856
79	0x3d458053	0.048218083
80	0xbcc4c4ce	-0.024019625
81	0xbd6c78db	-0.057732444
82	0x3e1682e0	0.14698362
83	0xbe0f6a01	-0.14005281
84	0x3e715817	0.2356876
85	0xbdf3100d	-0.11868296
86	0xbee1b7ac	-0.44085443
87	0xbdc97ac0	-0.09837866
88	0xbe508ea3	-0.20366912
89	0x3df7f66c	0.12107548
90	0x3f2578f9	0.64637715
91	0xbee93ef5	-0.45555845
92	0xbed12f3d	-0.40856352
93	0xbe162a23	-0.14664511
94	0x3ea01263	0.31264028
95	0xbecc52f1	-0.3990703
96	0x3e76a171	0.24085023
97	0xbf22f83a	-0.63660014
98	0x3e701ca9	0.23448433
99	0x3f1df74f	0.6170549
100	0x3ddfd94f	0.1093012
101	0xbed8c250	-0.4233575
102	0x3d630dd7	0.05543312
103	0xba6a9c4a	-0.00089496805
104	0xbe89beb5	-0.2690331
105	0x3e2c3c56	0.16819891
106	0x3ef1d16b	0.47230086
107	0xbf1a0e99	-0.60178524
108	0x3e8f922b	0.28041205
109	0xbf095073	-0.5363838
110	0x3dda0495	0.10645405
111	0xbe83cdee	-0.2574305
112	0x3d68fe5b	0.056883197
113	0xbf114111	-0.5673991
114	0x3ef55504	0.47916424
115	0x3ea49528	0.32145047
116	0x3ead6422	0.33865458
117	0xbc156900	-0.009119272
118	0x3e3bd996	0.18344721
119	0xbe374b9e	-0.1789994
120	0xbe92e782	-0.2869225
121	0xbd830a9c	-0.06398508
122	0xbe9c94eb	-0.30582365
123	0xbe565498	-0.20930707
124	0xbe9bbacf	-0.3041596
125	0xbdbef44c	-0.0932394
126	0x3f8f0b12	1.1175253
127	0xbeb9dd32	-0.3630157
128	0x3e8d73c5	0.27627388
129	0xbf1297db	-0.57262963
130	0x3ea9eeca	0.33189994
131	0xbe0e8b53	-0.13920335
132	0xbcb92b69	-0.022603707
133	0xbd693dd5	-0.056943733
134	0x3ce609d3	0.028080856
135	0xbe9f23ba	-0.31081945
136	0xbf8abbb0	-1.0838528
137	0x3e9a0cec	0.30087984
138	0x3ecfa60e	0.40556377
139	0x3f5ae519	0.85505825
140	0xbea19432	-0.31558377
141	0x3e9440b7	0.28955624
142	0xbf3af7f8	-0.7303462
143	0x3ea11f1a	0.3146904
144	0xbe1ce911	-0.15323283
145	0xbf318a52	-0.69351685
146	0x3d55f74f	0.052237805
147	0x3ef29124	0.47376359
148	0x3ec58f3b	0.3858584
149	0xbee855c3	-0.4537793
150	0x3df1b100	0.11801338
151	0x3eb3e495	0.35135332
152	0xbef11be0	-0.4709158
153	0x3f6efdb6	0.9335588
154	0xbabce30f	-0.001441093
155	0xbf45388d	-0.77039415
156	0xbd9833b7	-0.07431739
157	0x3df5e091	0.12005723
158	0xbcc5d6ee	-0.024150338
159	0xbe4a99f1	-0.19785286
160	0xbe82f553	-0.25577793
161	0x3dfb0f48	0.12258774
162	0xbf237d78	-0.63863325
163	0x3f25575e	0.64586437
164	0x3d9265bc	0.071483105
165	0x3f2560f3	0.6460106
166	0xbeaaa0c0	-0.33325768
167	0x3d2285de	0.039678447
168	0x3e7cb204	0.24677283
169	0xbdfb13c5	-0.1225963
170	0xbe9b93a4	-0.30386078
171	0xbef6d368	-0.48208165
172	0x3e9b8272	0.3037296
173	0xbf773d87	-0.9657826
174	0x3cd2b0d4	0.025719084
175	0xbcfbccff	-0.030737398
176	0xbf017e16	-0.50583017
177	0x3e84dced	0.25949803
178	0x3ee7cbdb	0.45272717
179	0x3e8e9340	0.27846718
180	0x3bb19228	0.0054190345
181	0xbd964c65	-0.0733879
182	0xbf18d0a7	-0.5969338
183	0x3e2a9881	0.16659738
184	0x3e3c0b1e	0.18363616
185	0x3ed65440	0.41861153
186	0xbf00c030	-0.50293255
187	0x3e6f3852	0.23361328
188	0x3e5bc8e1	0.21463348
189	0x3db9b644	0.090679675
190	0xbd52e24c	-0.051485345
191	0x3f099385	0.5374072
192	0xbed038d6	-0.40668362
193	0x3e93a1e8	0.28834462
194	0x3ae8ffa6	0.0017776384
195	0x3d9c3671	0.076275714
196	0x3e2b793b	0.16745465
197	0x3e8f5908	0.27997613
198	0xbe7895fa	-0.24275962
199	0x3f5c0bf5	0.85955745
200	0x3e2e1363	0.16999583
201	0x3eab4877	0.33453724
202	0xbf0e77e4	-0.5565169
203	0x3db7fff5	0.08984367
204	0x3d793824	0.060844555
205	0x3e2a78b5	0.16647609
206	0x3e533ee4	0.2062946
207	0x3f449a0e	0.7679757
208	0xbf46024c	-0.77347255
209	0xbd4aa2dc	-0.04947172
210	0x3e6ce572	0.23134401
211	0xbe1e00f6	-0.15430054
212	0xbeca2fa7	-0.3948948
213	0xbc09238f	-0.008370294
214	0xbe60d7b1	-0.2195728
215	0xbe714fd2	-0.23565605
216	0x3ddff986	0.10936265
217	0xbe6f828f	-0.23389648
218	0x3f16c78c	0.58898234
219	0x3dd45dd2	0.10369457
220	0xbdfd054c	-0.12354526
221	0xbe952dd6	-0.29136533
222	0x3dae276c	0.08503613
223	0x3dd1e47d	0.10248659
224	0x3d852f57	0.0650317
225	0xbcc504e0	-0.024050176
226	0xbe27015d	-0.16309114
227	0xbebbaa3c	-0.36653316
228	0x3e000644	0.1250239
229	0xbe3a5392	-0.18195942
230	0xbe715124	-0.23566109
231	0xbe9783ca	-0.29592735
232	0x3e5709ed	0.2099988
233	0xbdd08536	-0.10181658
234	0x3f23a10e	0.63917625
235	0x3f3dff80	0.7421799
236	0x3f240dc2	0.6408349
237	0xbf00c7d1	-0.50304896
238	0xbf4e466c	-0.80576205
239	0xbf67bce7	-0.9052262
240	0x3e1dd3ef	0.15412878
241	0x3d85c3fd	0.065315224
242	0xbbaba0d9	-0.0052376804
243	0x3f2ed535	0.6829408
244	0xbe92c065	-0.2866241
245	0xbf360393	-0.71099204
246	0x3e7b7fb6	0.24560437
247	0x3d55fffd	0.052246083
248	0x3f03932f	0.5139646
249	0xbe11d098	-0.14239728
250	0x3db27f46	0.08715682
251	0x3c88e971	0.016712876
252	0xbebb45f7	-0.36576816
253	0xbf171f6c	-0.5903232
254	0xbf559497	-0.83429855
255	0xbe3fbf27	-0.18725263

fc1.bias f4 [32]
0	0xbe72932f	-0.23688959
1	0x3ea67c79	0.3251684
2	0xbdfaff74	-0.12255755
3	0x3e1f5b63	0.15562205
4	0x3eab40a8	0.33447766
5	0xbe34bb59	-0.17649592
6	0xbe22a61e	-0.15883681
7	0x3e9cf845	0.30658165
8	0xbdb5d000	-0.088775635
9	0xbe4488a9	-0.19192757
10	0x3e97799f	0.29584977
11	0x3c568307	0.013092763
12	0x3e1a8f89	0.15093817
13	0xbde19980	-0.11015606
14	0xbd944373	-0.072394274
15	0xbe8e7c36	-0.2782914
16	0xbde3c3b9	-0.111213155
17	0xbc834fbf	-0.016029237
18	0x3d0c4d3e	0.03425335
19	0x3ea31916	0.31855077
20	0x3e9950c6	0.29944438
21	0xbd655a07	-0.05599406
22	0xbe8040ef	-0.2504954
23	0x3e117ed9	0.14208545
24	0x3e52cb62	0.20585397
25	0xbe88ec28	-0.26742673
26	0x3dba0e55	0.09084765
27	0xbe7f5d08	-0.24937832
28	0xb9c3d0eb	-0.00037348954
29	0x3e959b1a	0.29219896
30	0xbda1e2cf	-0.079045884
31	0x3b7033dc	0.0036652004

fc2.weight f4 [16, 32]
0	0xbf1458cb	-0.5794799
1	0x3e205a02	0.15659335
2	0x3edc7f4c	0.4306587
3	0x3db19bef	0.0867232
4	0x3e1f47b2	0.15554693
5	0xbde29d39	-0.11065144
6	0x3ea01f16	0.31273717
7	0x3c6df3c4	0.01452345
8	0xbeaa4647	-0.33256742
9	0xbd905282	-0.07046987
10	0x3e0a450a	0.13502899
11	0x3e2e5814	0.17025787
12	0x3eb3379c	0.35003364
13	0x3e23b069	0.15985264
14	0x3ea878eb	0.32904753
15	0x3e715146	0.2356616
16	0x3dc7f15c	0.097628325
17	0xbeb802ac	-0.35939538
18	0x3e8c124f	0.27357718
19	0x3e50fc9a	0.2040886
20	0xbdc65038	-0.09683269
21	0x3df6b8e6	0.12046985
22	0x3e8750b2	0.26428753
23	0xbef51aeb	-0.478721
24	0x3e0673e9	0.13130154
25	0xbe02a4bf	-0.12758158
26	0x3ea72ec7	0.32652876
27	0xbe8953e1	-0.26821807
28	0xbf19f252	-0.60135376
29	0x3d7f3192	0.062303133
30	0xbe6a0d3a	-0.22856608
31	0x3e300748	0.17190278
32	0xbea6fd6a	-0.32615215
33	0x3d8305ca	0.063975886
34	0x3d1fb818	0.038993925
35	0x3e5bf8aa	0.21481577
36	0x3c8df740	0.017329812
37	0x3e3bdc38	0.18345726
38	0x3c9b6656	0.018969696
39	0x3d5eba33	0.054376792
40	0x3e049c21	0.12950183
41	0x3d91a894	0.07112232
42	0x3e3ba896	0.18326029
43	0xbdf969f1	-0.1217841
44	0x3d764ece	0.060133748
45	0xbc161bd0	-0.009161904
46	0x3d8a97c5	0.06767229
47	0x3c622ace	0.013804151
48	0x3e20b0d4	0.15692455
49	0x3b0635f2	0.0020478931
50	0x3c7c6e8c	0.015407216
51	0x3e8e6d0f	0.2781758
52	0xbdb38452	-0.087654725
53	0x3e0399a9	0.12851585
54	0x3dacb67d	0.084332444
55	0xbd90eaaa	-0.070760086
56	0x3e3a444a	0.18190113
57	0xbcd4544e	-0.025919106
58	0xbc7a3fd5	-0.015274008
59	0xbc444894	-0.011980195
60	0xbe9aff37	-0.30272838
61	0x3e4800a7	0.19531499
62	0xbd9fc0c5	-0.0780044
63	0x3dbea623	0.09309032
64	0xbdf9fad3	-0.12206044
65	0xbf9ceb80	-1.2259369
66	0xbc78ee6d	-0.015193564
67	0xbca857fd	-0.020549769
68	0x3d7dc08f	0.061951216
69	0x3ea9e00e	0.33178753
70	0xbe97ec8a	-0.29672652
71	0xbe73f7a0	-0.2382493
72	0x3e36dad7	0.17856918
73	0xbe29399f	-0.16525887
74	0x3e222abe	0.15836617
75	0xbf831f94	-1.0244012
76	0x3e1cb571	0.1530359
77	0x3dcf6d0e	0.101282224
78	0x3e39d748	0.1814853
79	0xbd480791	-0.04883534
80	0xbe8748f4	-0.26422846
81	0xbd0c52b6	-0.034258567
82	0xbdb78fee	-0.08962999
83	0x3b5dc442	0.0033838903
84	0xbf06b58c	-0.5262077
85	0xbf7bdb82	-0.9838182
86	0xbeecdade	-0.46260732
87	0xbe992573	-0.29911384
88	0xbe1f727e	-0.15571019
89	0x3dbf3d49	0.09337861
90	0x3e189283	0.1489964
91	0x3e5baba5	0.21452196
92	0xbee00782	-0.43755728
93	0x3e1d307f	0.15350531
94	0xbddadb13	-0.10686316
95	0xbf0d23f0	-0.5513296
96	0xbf44b5ea	-0.7684008
97	0x3d53280c	0.051551864
98	0x3ec2e894	0.38068068
99	0x3e0e9365	0.13923414
100	0x3db84e4d	0.0899931
101	0xbdea3289	-0.1143542
102	0x3e882740	0.26592445
103	0x3e12fec3	0.14354996
104	0xbf04e0a7	-0.5190529
105	0x3dab3948	0.08360535
106	0x3ec574a3	0.3856555
107	0x3e052e19	0.13005866
108	0x3e849535	0.25895086
109	0xbcbbfdb0	-0.022948116
110	0x3ef7615c	0.48316467
111	0x3e63ef35	0.22259219
112	0x3eb5bd05	0.35495773
113	0xbea9a2a6	-0.33131903
114	0x3e74194d	0.23837776
115	0x3eeedb21	0.46651557
116	0xbd74a893	-0.059731077
117	0x3e67b393	0.22627096
118	0x3ede950f	0.43473098
119	0xbef5e626	-0.48027152
120	0x3e1ea47d	0.15492435
121	0x3d678774	0.056525663
122	0x3ea6fc9f	0.3261461
123	0xbee8078d	-0.4531826
124	0xbf3bfdf9	-0.73434407
125	0x3e991a98	0.29903102
126	0xbe07f2f8	-0.13276279
127	0x3ecadbb1	0.39620736
128	0xbda5b65a	-0.080914214
129	0xbe30fdef	-0.17284368
130	0x3daa95ce	0.08329354
131	0xbd3927e3	-0.045204055
132	0x3d8c33cc	0.06845817
133	0xbd887eaa	-0.06664784
134	0x3d289ca4	0.04116501
135	0xbb0537cd	-0.002032745
136	0xbdff70fe	-0.124727234
137	0xbd15154c	-0.036397263
138	0xbe2e7799	-0.1703781
139	0xbe21d0c6	-0.15802297
140	0x3c18ebb0	0.009333536
141	0x3a862780	0.0010235161
142	0xbda87614	-0.082256466
143	0xbda88e21	-0.08230234
144	0xbe33ab06	-0.17545709
145	0x3e1a2dd7	0.15056549
146	0xbd48f094	-0.04905756
147	0xbcd80011	-0.02636722
148	0xbbddeecf	-0.006772853
149	0xbdf74b02	-0.120748535
150	0x3dada86f	0.08479392
151	0xbd88f009	-0.06686408
152	0x3e0af5da	0.13570347
153	0x3e2f9e21	0.17150165
154	0xbdc5df55	-0.09661738
155	0xbe2990f5	-0.16559203
156	0x3d41994b	0.047265332
157	0xbdb88b92	-0.09010996
158	0x3d82733a	0.06369634
159	0xbdacad71	-0.08431519
160	0xbf52830d	-0.8223122
161	0xbd8f72dc	-0.070043296
162	0x3ecfd232	0.40590054
163	0x3c7b8ad4	0.015352923
164	0xbdebf0a5	-0.11520509
165	0x3d8a04ae	0.06739174
166	0x3eedc578	0.4643972
167	0x3e44b1b0	0.19208407
168	0xbef5f603	-0.48039255
169	0xbe28d93e	-0.16489121
170	0x3df0410e	0.11731158
171	0x3e42012a	0.18945757
172	0xbda769c7	-0.08174472
173	0xbb8fb3c0	-0.0043854415
174	0x3ea87096	0.32898396
175	0x3da52c16	0.08065049
176	0xbddbe1d8	-0.10736436
177	0x3db74fd6	0.08950774
178	0x3e0e6f7c	0.13909715
179	0x3e99e95d	0.30060855
180	0xbd57437d	-0.052554596
181	0xbd94bdbe	-0.07262753
182	0x3e7e73d2	0.2484887
183	0xbe6d2b0d	-0.23160954
184	0x3e52844b	0.20558278
185	0xbc61114e	-0.013737036
186	0xbc5400bf	-0.012939631
187	0xbd7cdb57	-0.061732616
188	0xbe74cd51	-0.23906447
189	0x3ec42503	0.38309488
190	0xbe0b94f5	-0.13631041
191	0x3ec1b725	0.3783504
192	0x3f52ef3e	0.82396305
193	0xbe2f3c35	-0.17112811
194	0x3e72a568	0.2369591
195	0xbe1f0879	-0.15530576
196	0x3e84c719	0.2593315
197	0xbf718f18	-0.9435897
198	0xbf851f9b	-1.040027
199	0x3e05003d	0.12988372
200	0x3e894c65	0.26816097
201	0x3e4e81cb	0.201667
202	0xbf752b37	-0.95769066
203	0xbf15002c	-0.5820339
204	0x3e7e734c	0.2484867
205	0x3c0dd600	0.008656979
206	0xc0361dc5	-2.845567
207	0xbe4004af	-0.18751787
208	0xbe8a392f	-0.26996753
209	0x3e840fdc	0.2579335
210	0x3b2916b8	0.0025800895
211	0x3e8a96d4	0.27068198
212	0xbe214692	-0.15749577
213	0xbe9121ea	-0.28346187
214	0xbe169f8b	-0.14709298
215	0x3e0f5ff4	0.14001447
216	0xbe32f130	-0.17474818
217	0x3d97cab2	0.07411708
218	0x3f066e22	0.525118
219	0x3f46c633	0.7764618
220	0x3dd4f55a	0.103983596
221	0xbdae98c2	-0.0852523
222	0xbf0b1181	-0.54323584
223	0x3e01ce8a	0.12676445
224	0x3cbcfadc	0.023068838
225	0x3dcff140	0.10153437
226	0x3ed03f63	0.4067336
227	0xbe359a29	-0.17734589
228	0xbf717ab7	-0.94327873
229	0x3efc932d	0.49331036
230	0xbe3919f7	-0.18076311
231	0x3d64e9a7	0.05588689
232	0xbe8d1a0e	-0.2755894
233	0xbd8470f4	-0.064668566
234	0xbf05e680	-0.5230484
235	0x3d37ddd6	0.044889294
236	0xbe735179	-0.23761548
237	0xbd9aa833	-0.07551613
238	0x3ed354a6	0.4127552
239	0xbf223495	-0.63361484
240	0x3ebe8676	0.3721196
241	0xbe952eea	-0.29137355
242	0x3e344500	0.17604446
243	0xbf93a90d	-1.1535965
244	0xbd21d89c	-0.039513215
245	0x3d736a47	0.059427526
246	0xbfcf6fdf	-1.6206015
247	0xbd979797	-0.0740196
248	0x3db057f7	0.08610528
249	0xbe3367a4	-0.17520005
250	0xbe7b8411	-0.24562098
251	0xbdd2f392	-0.103003636
252	0xbe99c9b3	-0.30036697
253	0xbf173360	-0.5906277
254	0xbd4fe54d	-0.050755788
255	0xbf86f8f4	-1.0544724

fc2.bias f4 [16]
0	0x3da33a8e	0.07970153
1	0xbd206f96	-0.039168917
2	0xbdcd22a2	-0.10016371
3	0x3aab872e	0.0013086551
4	0xbde1a492	-0.110177174
5	0xbbca399b	-0.006171418
6	0x3bdd505c	0.0067539643
7	0xbdadc184	-0.08484176
8	0xbb412038	-0.0029468667
9	0xbd2b10ba	-0.041764
10	0x3e8626ef	0.2620158
11	0x3d646553	0.055760693
12	0xbd26097f	-0.0405364
13	0x3e4db45e	0.20088336
14	0xbe60da0f	-0.21958183
15	0x3e2221ad	0.15833159

out.weight f4 [3, 16]
0	0x3e5981ed	0.21240969
1	0x3de48260	0.111576796
2	0x3f2baefa	0.6706387
3	0x3ed506da	0.4160679
4	0x3e19f24b	0.15033834
5	0x3e80c3ed	0.2514948
6	0xbf114d3c	-0.56758475
7	0x3f1cccfb	0.61250275
8	0x3eba22f8	0.36354804
9	0x3e295f0e	0.16540167
10	0xbfa08614	-1.2540917
11	0x3dce7ef8	0.10082811
12	0xbfac54ae	-1.3463342
13	0xbedd699d	-0.4324464
14	0xbec180af	-0.3779349
15	0xbf0403c5	-0.5156825
16	0x3e37f735	0.17965396
17	0xbd36d06c	-0.04463236
18	0x3f0098f4	0.5023339
19	0x3ed2b03b	0.41150078
20	0xbdec87ac	-0.11549315
21	0x3e21466f	0.15749525
22	0xbf00c167	-0.5029511
23	0x3f275196	0.65358865
24	0x3ec8c94f	0.39216086
25	0x3e3787a1	0.17922832
26	0xbf74fda8	-0.9569955
27	0x3e9a0802	0.30084234
28	0xbf7353ef	-0.9504995
29	0xbf1e263e	-0.617771
30	0xbec19e08	-0.3781588
31	0xbeef3e74	-0.46727335
32	0x3ea3afed	0.31970158
33	0x3e37777d	0.17916675
34	0x3f10a14e	0.5649613
35	0x3e8fb2cd	0.28066102
36	0xbe2bef32	-0.16790465
37	0x3e2ee9c4	0.17081362
38	0xbef1ccbf	-0.4722652
39	0x3f1d265e	0.6138667
40	0x3ed59aef	0.41719767
41	0x3e50f619	0.20406379
42	0xbf6daaf4	-0.9283898
43	0x3e4e9697	0.20174633
44	0xbf66aa33	-0.90103453
45	0xbf1203e3	-0.5703718
46	0xbe776275	-0.24158652
47	0xbefddc6f	-0.4958224

out.bias f4 [3]
0	0xbc9a1243	-0.018807536
1	0xbd659439	-0.05604956
2	0xbdb73b66	-0.08946876
